chapeter1/Lenet.pth (torch_old, 198500 bytes, 10 tensors)

weight f4 [6, 1, 5, 5]
0	0x3cb33c46	0.021879327
1	0xbeaf152e	-0.34195846
2	0xbec3506e	-0.381473
3	0xbeebf1b5	-0.46082845
4	0xbe07e668	-0.13271487
5	0x3d59d1bb	0.05317853
6	0xbde5db24	-0.112234384
7	0xbf5d64c7	-0.864819
8	0xbf7220ca	-0.9458128
9	0xbe919a9e	-0.28438276
10	0x3ead2813	0.33819637
11	0xbe4e8e3a	-0.20171443
12	0xbf401861	-0.750372
13	0xbf4c3016	-0.79760873
14	0x3e839928	0.25702786
15	0x3f339fea	0.70165884
16	0x3dc84138	0.097780645
17	0xbea9c77d	-0.3316001
18	0xbdb57362	-0.08859898
19	0x3eb6754c	0.35636365
20	0x3eee8f68	0.46593785
21	0x3eaa18fe	0.33222193
22	0xbe23165b	-0.15926497
23	0xbe99b1e3	-0.3001853
24	0x3e847857	0.25873062
25	0x3dd52394	0.104071766
26	0xbe253b31	-0.16135861
27	0xbeb0adfc	-0.3450774
28	0xbd7c0465	-0.06152763
29	0xbdb802cf	-0.08984911
30	0xbe7491e3	-0.23883776
31	0xbf5e822e	-0.8691739
32	0xbf0866a1	-0.532816
33	0xbe91667f	-0.2839851
34	0xbd1d7eb1	-0.0384509
35	0xbdaeb848	-0.085312426
36	0xbf912708	-1.1340036
37	0xbfa334bf	-1.2750472
38	0xbf56f86b	-0.83972806
39	0xbe4f2f80	-0.20232964
40	0x3e16406a	0.1467301
41	0xbf79b938	-0.97548246
42	0xbfa58754	-1.2931924
43	0xbfa0bbf6	-1.2557361
44	0xbee75902	-0.45185095
45	0x3eb7469c	0.35796058
46	0xbf151910	-0.5824137
47	0xbf39d41f	-0.72589296
48	0xbf6a8503	-0.9160921
49	0xbf012391	-0.50444895
50	0x3f0db280	0.55350494
51	0x3f3790ec	0.7170551
52	0x3f5b3763	0.8563139
53	0x3f62cea5	0.88596565
54	0x3f1bcf3b	0.60863084
55	0x3f5749a2	0.8409673
56	0x3f623fd1	0.88378626
57	0x3f67e377	0.9058146
58	0x3f7a229f	0.9770908
59	0x3f1a7839	0.60339695
60	0x3f664ac9	0.89957863
61	0x3f68756a	0.9080416
62	0x3f369ae6	0.71330106
63	0x3f31a8c2	0.6939813
64	0x3eee5463	0.46548757
65	0x3f33a1ab	0.7016856
66	0x3f48defd	0.78465253
67	0x3f311a72	0.6918098
68	0x3f38ae70	0.7214117
69	0x3eedccd3	0.4644533
70	0x3eed823f	0.46388432
71	0x3f4b5f5e	0.79442394
72	0x3f6daa5f	0.9283809
73	0x3f401a02	0.75039685
74	0x3d36109a	0.044449426
75	0x3f6422c7	0.89115566
76	0x3f26bcd9	0.6513191
77	0x3f6a8971	0.9161597
78	0x3f0bd51f	0.5462207
79	0x3ed9de6f	0.42552516
80	0x3f30f68d	0.69126207
81	0x3f816423	1.0108684
82	0x3f89972d	1.074926
83	0x3f76cc79	0.9640575
84	0x3ecefc99	0.40427092
85	0x3f21319f	0.6296634
86	0x3f6a7a93	0.91593283
87	0x3f88b979	1.0681602
88	0x3f3cf8a2	0.73816884
89	0x3e8faea1	0.2806292
90	0x3ebaece8	0.3650887
91	0x3f4be211	0.79641825
92	0x3f53b130	0.8269224
93	0x3f0c5237	0.5481295
94	0x3e50e482	0.20399669
95	0x3e2db997	0.16965328
96	0x3ef4c7fb	0.47808823
97	0x3f0e6d1a	0.55635226
98	0x3f4709da	0.7774941
99	0x3e9b287f	0.30304334
100	0x3e2c6514	0.16835433
101	0xbee11b38	-0.4396608
102	0xbf54d951	-0.831441
103	0xbe3946a9	-0.18093361
104	0x3dcef6b4	0.10105649
105	0x3dafe310	0.085882306
106	0xbe680564	-0.22658306
107	0xbf8289f3	-1.0198349
108	0xbe12ca34	-0.14334947
109	0x3ed83974	0.42231333
110	0x3ea0b13a	0.31385213
111	0xbe483994	-0.19553214
112	0xbf5a7a6f	-0.8534307
113	0x3e592bd6	0.21208128
114	0x3ee9b549	0.45646122
115	0x3e53a1ac	0.20667142
116	0xbe8d5074	-0.27600443
117	0xbef7e5b6	-0.48417443
118	0xbd74c0e2	-0.05975426
119	0x3e613b1b	0.21995203
120	0x3eed365d	0.46330538
121	0xbdf30e5f	-0.118679754
122	0xbed718ac	-0.4201101
123	0x3e6264e5	0.221088
124	0x3efff867	0.49994203
125	0x3c66c994	0.014086146
126	0x3c5e7c71	0.013579474
127	0xbee57544	-0.4481603
128	0xbf267e61	-0.6503659
129	0xbeace41e	-0.3376779
130	0x3d20e77f	0.039283272
131	0xbd90c411	-0.07068647
132	0xbf8b2c61	-1.0872918
133	0xbfb2c60b	-1.3966688
134	0xbf359f97	-0.7094664
135	0x3edfc31b	0.4370354
136	0x3d86fe6a	0.065914944
137	0xbf85f8ff	-1.0466613
138	0xbfbef8aa	-1.4919636
139	0xbecd2f95	-0.40075365
140	0x3eda9f72	0.42699772
141	0x3dea5783	0.11442473
142	0xbef42cbb	-0.47690377
143	0xbf33db9c	-0.7025697
144	0xbec64f77	-0.38732502
145	0x3f15397c	0.5829084
146	0x3eeeb688	0.46623635
147	0x3c41e76d	0.011834961
148	0xbf0bdbbb	-0.5463216
149	0xbe2ed23a	-0.17072383

bias f4 [6]
0	0x3ea57a8a	0.32320052
1	0x3ec49fd3	0.38403186
2	0xbe9b98f1	-0.30390123
3	0xbd2c8e7f	-0.042128082
4	0x3e805dfd	0.25071707
5	0x3e2d5926	0.16928539

weight f4 [16, 6, 5, 5]
0	0x3f1c1c8e	0.6098107
1	0x3ec061ef	0.37574717
2	0xbe5e7951	-0.21725966
3	0xbea91542	-0.3302403
4	0xbdafd755	-0.08585993
5	0x3f0facd9	0.5612312
6	0x3e85d214	0.2613684
7	0xbe7fea32	-0.24991682
8	0xbe8ddb70	-0.2770648
9	0xbdf3cb53	-0.119040154
10	0x3e8fe986	0.28107852
11	0x3e765513	0.2405589
12	0xbee26277	-0.44215748
13	0xbe9b1eb0	-0.3029685
14	0xbda7f4ef	-0.08201014
15	0x3e93739c	0.2879914
16	0x3e4ec4e8	0.20192301
17	0xbef6ed4a	-0.48227912
18	0xbeee9990	-0.46601534
19	0x3d141546	0.0361531
20	0x3e294fc9	0.16534342
21	0x3dbbb0a3	0.0916455
22	0xbeeec940	-0.46637917
23	0xbe23a664	-0.15981442
24	0x3ea300bf	0.31836507
25	0x3f476274	0.778846
26	0x3ec882ec	0.39162385
27	0x3c5b0930	0.01336889
28	0xbe362993	-0.17789297
29	0xbe5c33b3	-0.21504097
30	0x3f27caff	0.6554412
31	0x3ee22ab5	0.44173208
32	0xbc189931	-0.009313867
33	0xbe6ad48a	-0.2293264
34	0xbe51d060	-0.20489645
35	0x3eb83e69	0.35985115
36	0x3dd0ec65	0.10201339
37	0xbeb7562b	-0.35807928
38	0xbf0427d0	-0.5162325
39	0xbed29072	-0.41125828
40	0x3f192ec6	0.59836996
41	0x3e23db5b	0.16001646
42	0xbf324470	-0.6963568
43	0xbf21858d	-0.6309441
44	0xbe75a5cc	-0.23989028
45	0x3f029051	0.5100146
46	0x3e4f745f	0.20259236
47	0xbef60040	-0.48047066
48	0xbe75a5dc	-0.23989052
49	0x3e6888a5	0.22708376
50	0xbeb023ac	-0.34402215
51	0xbe34fe69	-0.17675175
52	0xbd48bd3a	-0.049008586
53	0x3d397928	0.04528156
54	0x3e0e8e35	0.13921435
55	0xbe55dfc4	-0.20886141
56	0xbe199711	-0.14999034
57	0x3dcd019d	0.10010073
58	0x3e0596d0	0.13045812
59	0x3d7b61b6	0.06137248
60	0xbe38c81c	-0.18045086
61	0x3cabc730	0.020969003
62	0x3e500e54	0.20317966
63	0x3e39bde4	0.18138844
64	0x3e175e39	0.14782037
65	0xbe653be1	-0.22386123
66	0x3d17b800	0.03704071
67	0x3df874f7	0.12131684
68	0x3e4ca7f8	0.1998595
69	0x3e01f0ef	0.12689565
70	0xbea68bf0	-0.3252864
71	0xbded8b05	-0.115987815
72	0x3d30b2e1	0.043139342
73	0x3dda2a31	0.106525786
74	0x3c3e4339	0.011612707
75	0xbeb155c2	-0.3463574
76	0xbe5ba077	-0.21447931
77	0xbc9e9bc6	-0.019361388
78	0xbd222246	-0.039583467
79	0x3e0fb422	0.14033559
80	0xbe85def7	-0.2614667
81	0xbd5acb55	-0.05341657
82	0xbca7c03f	-0.020477412
83	0x3c15456a	0.009110788
84	0x3db53749	0.088484354
85	0xbe309bc4	-0.1724692
86	0x3cd355d2	0.025797758
87	0x3d431caa	0.047634758
88	0x3ddc169b	0.10746499
89	0x3e135d6c	0.14391106
90	0xbe4b09c6	-0.19827947
91	0x3c9dc19f	0.019257365
92	0x3e050736	0.12991032
93	0x3db010f5	0.08596984
94	0x3dc3de39	0.0956387
95	0xbe8ecc56	-0.2789027
96	0xbe1241ce	-0.14282915
97	0x3ac3c6af	0.0014936532
98	0x3d2e28f3	0.04251952
99	0x3ddf4a01	0.10902787
100	0x3f12d413	0.5735485
101	0x3efed919	0.49775007
102	0x3dae5b35	0.0851349
103	0xbec30bc3	-0.3809491
104	0xbe6ff121	-0.23431827
105	0x3f07a30f	0.5298318
106	0x3e8150b9	0.252569
107	0xbe1a3efa	-0.15063086
108	0xbeb4a072	-0.3527866
109	0xbd0c363b	-0.034231406
110	0x3eafaaa1	0.34309867
111	0x3e5d84f1	0.21632744
112	0xbe40e0f2	-0.1883581
113	0xbeaa45ce	-0.33256382
114	0xbe430162	-0.19043496
115	0x3e7ea3dc	0.24867195
116	0x3e9c7a6d	0.30562153
117	0xbe8a920f	-0.2706456
118	0xbf087d8f	-0.5331659
119	0xbe93301a	-0.28747636
120	0x3e500848	0.20315659
121	0x3e87c5b3	0.2651802
122	0xbe3d4bd9	-0.18485965
123	0xbecb9210	-0.39759874
124	0x3d7a2cf0	0.061078012
125	0x3f27d60c	0.65560985
126	0x3e62d3f4	0.22151166
127	0xbdd47f64	-0.1037586
128	0xbe9b6b1d	-0.30355158
129	0xbe6cc871	-0.23123337
130	0x3f1ba171	0.60793215
131	0x3e7f150a	0.2491037
132	0xbe8e4509	-0.27787045
133	0xbe434f01	-0.19073106
134	0xbc9b420e	-0.018952396
135	0x3ed572ce	0.41689152
136	0x3dc747df	0.09730505
137	0xbe968363	-0.29397115
138	0xbeb93842	-0.36175734
139	0xbdac71a9	-0.084201165
140	0x3ed5487a	0.41656858
141	0xbdabbf29	-0.0838607
142	0xbf420a63	-0.757971
143	0xbedb0031	-0.42773584
144	0x3e8b4346	0.27199763
145	0x3eb11493	0.3458601
146	0xbcebd9c1	-0.028790357
147	0xbf21cf4c	-0.63206935
148	0x3d95ec2c	0.07320437
149	0x3f23c6d9	0.6397529
150	0x3e802a4e	0.25032276
151	0x3ed1b68b	0.40959582
152	0x3f06b17a	0.5261456
153	0x3ea4a653	0.32158145
154	0x3d2d5f4d	0.042327214
155	0x3db720cb	0.08941802
156	0x3e51c9d8	0.20487154
157	0x3df3fab7	0.119130544
158	0xbe9f7e22	-0.3115092
159	0xbe598bda	-0.21244755
160	0x3d6a85c8	0.05725649
161	0x3e7fb58f	0.24971603
162	0x3e1fed0d	0.15617771
163	0xbedb98a8	-0.42889905
164	0xbe352bbc	-0.17692465
165	0x3cece7a0	0.028919041
166	0x3e8cc570	0.27494383
167	0x3d17b89a	0.037041284
168	0xbf324810	-0.6964121
169	0xbeacf583	-0.3378106
170	0x3e181984	0.14853483
171	0x3e96469e	0.29350752
172	0xbe198246	-0.14991102
173	0xbf5352f4	-0.8254845
174	0xbee29f07	-0.44261953
175	0x3e16d8ad	0.14731093
176	0x3d9758f3	0.073900126
177	0x3dee5e74	0.11639109
178	0x3c8abc9f	0.016935645
179	0x3d063c6c	0.032772467
180	0x3dd11af3	0.10210218
181	0x3e9dbaf5	0.308067
182	0x3deab1fe	0.114597306
183	0xbe03be87	-0.12865649
184	0xbe4dba72	-0.20090654
185	0x3e3f020c	0.18653125
186	0x3e7a65eb	0.24452941
187	0x3cbb8083	0.022888428
188	0xbe5c9d4c	-0.21544379
189	0xbe8478b7	-0.25873348
190	0x3e8f894f	0.28034446
191	0x3ebf60f9	0.37378672
192	0xbd5e35b9	-0.054250453
193	0xbf0b8f85	-0.5451587
194	0xbf0ed4bd	-0.5579336
195	0x3f043efc	0.51658607
196	0x3f195be2	0.5990583
197	0x3d82dd35	0.06389848
198	0xbeddade6	-0.43296736
199	0xbebe698f	-0.3718991
200	0xbe48f439	-0.19624414
201	0xbe6a041c	-0.2285313
202	0xbd02e97b	-0.031960946
203	0xbdcea1ec	-0.10089478
204	0xbcc9273e	-0.024554845
205	0xbe6069c2	-0.21915343
206	0xbe17dca3	-0.1483026
207	0xbd5faa87	-0.054605987
208	0xbd88c394	-0.066779286
209	0x3cb4f322	0.022088591
210	0xbe4a7b43	-0.19773583
211	0xbdeb4a02	-0.11488725
212	0x3d3f45a0	0.04669726
213	0x3e18dbde	0.14927623
214	0x3df52e48	0.11971718
215	0xbdbf35da	-0.09336443
216	0xbd131721	-0.03591073
217	0x3e0f51a5	0.13995989
218	0x3e4dc1a0	0.20093393
219	0x3e47af89	0.19500555
220	0xbce77e6b	-0.028258523
221	0xbd931084	-0.071808845
222	0x3e51c00a	0.20483413
223	0x3e8abb9d	0.27096263
224	0x3e8cf509	0.27530697
225	0xbe51509a	-0.20440903
226	0xbe22999f	-0.15878914
227	0xbd815a75	-0.063160814
228	0x3c98d413	0.018655812
229	0xbdfdf5e7	-0.12400418
230	0xbe220ba0	-0.15824747
231	0xbe1f7775	-0.15572913
232	0xbc2ec805	-0.010667806
233	0xbd1c39e9	-0.038141165
234	0x3d80c37e	0.06287287
235	0xbd42afe5	-0.047531027
236	0xbdb86047	-0.090027384
237	0x3d04ec4a	0.032451905
238	0x3d83c660	0.064343214
239	0x3e5d78fc	0.21628183
240	0xbe0219ef	-0.12705205
241	0xbd5cdb08	-0.053919822
242	0x3bad1a67	0.0052826884
243	0x3e6a4c97	0.22880779
244	0x3e0f75e6	0.14009818
245	0xbd954db8	-0.07290214
246	0xbdacfe1c	-0.08446905
247	0x3db73f4c	0.0894762
248	0x3e7dadb7	0.24773298
249	0x3e748205	0.23877724
250	0x3ed28151	0.41114286
251	0x3e2b0232	0.16700056
252	0x3ee66e04	0.4500581
253	0x3eb08d48	0.3448279
254	0xbd702a65	-0.05863418
255	0x3e1726cc	0.14760894

bias f4 [16]
0	0xbcb82b0c	-0.022481464
1	0xbcf6e693	-0.030139243
2	0x3d3635b6	0.044484816
3	0xbcf48cc9	-0.029852288
4	0x3cf3bee8	0.029754117
5	0x3ca53b30	0.020169824
6	0x3dbeea25	0.09322003
7	0x3da43ea2	0.08019759
8	0xbdfb1ad7	-0.12260979
9	0x3dd15415	0.102211155
10	0x3d6bc4cb	0.057560723
11	0xbcd2ffd0	-0.025756747
12	0x3d861da2	0.06548621
13	0xbb92ad7e	-0.0044762483
14	0xbd19c191	-0.037538115
15	0x3d300121	0.042969827

weight f4 [120, 256]
0	0xbc3f96e1	-0.011693687
1	0x39b8e899	0.00035268514
2	0x3dce5b7f	0.10076045
3	0xbe99bdd5	-0.30027643
4	0x3de159e0	0.110034704
5	0x3b81dbea	0.0039629834
6	0x3c4b30a9	0.012401738
7	0xbdcb4a6d	-0.09926305
8	0x3d69f062	0.057114013
9	0xbdb0ffb6	-0.08642523
10	0xbd9be493	-0.076119564
11	0x3e10970b	0.14120118
12	0xbc78c9de	-0.015184848
13	0xbe1607e2	-0.14651445
14	0x3e84c618	0.25932384
15	0xbf49b5ac	-0.78792834
16	0x3e542093	0.20715551
17	0x3d088985	0.033334274
18	0xbe04064d	-0.12893029
19	0xbaa92316	-0.0012904133
20	0x3e802d97	0.25034782
21	0x3e25631f	0.16151093
22	0x3c33be77	0.010970703
23	0x3e9fc845	0.3120748
24	0x3dabd744	0.08390668
25	0xbd8c6a21	-0.0685618
26	0x3d94a1e2	0.07257439
27	0x3eb7a2b6	0.35866326
28	0x3d59a392	0.05313451
29	0xbd8c0619	-0.068371005
30	0x3ed2ebc8	0.41195512
31	0xbf528408	-0.82232714
32	0xbeb6d449	-0.35708836
33	0xbd93118c	-0.07181081
34	0xbd8d976e	-0.069136485
35	0xbc9d13dc	-0.019174509
36	0xbe7c6525	-0.24647959
37	0xbca75026	-0.02042396
38	0xbcabaa42	-0.020955209
39	0xbd541a62	-0.051782973
40	0xbe0641fb	-0.13111107
41	0x3a313ab0	0.0006760759
42	0xbda5c8a2	-0.08094908
43	0xbc949d53	-0.018141424
44	0xbe65cfea	-0.22442594
45	0xbcf810a9	-0.030281382
46	0xbd1c9561	-0.038228396
47	0xbddf2134	-0.10895005
48	0xbe1e4439	-0.15455712
49	0xbde88c91	-0.11354936
50	0xbcd07326	-0.025445532
51	0xbb711b7d	-0.0036790066
52	0xbde451a3	-0.111483835
53	0xbcb2b5fe	-0.021815296
54	0xbdccc02c	-0.099975914
55	0x3dedde6c	0.11614689
56	0xbea6b1d4	-0.32557547
57	0xbdff2417	-0.124580555
58	0x3ca02bc7	0.019552125
59	0xbe220c75	-0.15825064
60	0xbea0d57f	-0.31412885
61	0xbe50f09a	-0.20404282
62	0xbc0da893	-0.008646148
63	0x3dae71e2	0.08517815
64	0x3dc35187	0.095370345
65	0x3dba5cde	0.09099744
66	0xbe0eaaa4	-0.13932282
67	0xbe1b82a6	-0.15186557
68	0x3e98d9d1	0.2985368
69	0x3e0eba71	0.13938309
70	0xbd3e0a84	-0.046396747
71	0x3dc5fe53	0.09667649
72	0x3d96bf92	0.07360758
73	0x3d25b109	0.040452037
74	0x3e010bf1	0.12602212
75	0x3ea823b5	0.32839742
76	0x3d111021	0.035415772
77	0xbdf645f5	-0.12025062
78	0x3e0661d9	0.13123263
79	0xbe1a709d	-0.15082021
80	0x3daaf42b	0.083473526
81	0xbd884253	-0.06653275
82	0x3cc78b60	0.024358451
83	0x3d98e30e	0.07465182
84	0x3c8bd671	0.017070027
85	0x3c08a036	0.0083389785
86	0x3d46a4bb	0.048496943
87	0x3dbd822e	0.092533454
88	0xbd67c66f	-0.056585725
89	0x3d11d828	0.035606533
90	0x3d516e05	0.051130313
91	0xbc171170	-0.009220466
92	0x3d3e0585	0.046391983
93	0x3d2cba6c	0.042169973
94	0x3d7fd863	0.06246222
95	0x3ca4c189	0.020111816
96	0x3d8a517e	0.06753825
97	0xbe6a5316	-0.22883257
98	0xbd78a551	-0.060704533
99	0x3d020c00	0.031749725
100	0x3cac2254	0.021012463
101	0x3d541a09	0.05178264
102	0x3b1f609b	0.0024319056
103	0x3d5db393	0.054126333
104	0xbb9e641e	-0.0048337122
105	0xbcb30a51	-0.021855505
106	0x3e168b97	0.14701687
107	0xbd5521e5	-0.052034277
108	0xbbbefb84	-0.005828323
109	0x3d1237eb	0.03569786
110	0x3d0294c1	0.031880144
111	0x3c80e789	0.015735405
112	0xbea8e3b4	-0.32986224
113	0xbd93016b	-0.07178005
114	0xbe8c1ec7	-0.2736723
115	0x3d05f850	0.032707512
116	0xbebf7053	-0.37390384
117	0x3d1b942f	0.037983116
118	0xbcfd0630	-0.03088674
119	0x3d3c8477	0.046024766
120	0xbda1ed94	-0.079066426
121	0x3cbe3b23	0.023221558
122	0xbddf3882	-0.1089945
123	0xbd94c6a1	-0.07264448
124	0xbd37a48e	-0.044834666
125	0x3d18153b	0.037129622
126	0xbda096b8	-0.07841247
127	0xbd0ca439	-0.034336302
128	0x3d71b5dd	0.05901133
129	0x3e7ba667	0.24575196
130	0x3e92305b	0.28552517
131	0xbe012b47	-0.12614165
132	0xbebfde33	-0.37474212
133	0x3d6610ab	0.05616824
134	0x3e8b8bdd	0.27255145
135	0xbe60c53d	-0.2195024
136	0xbe17e8c8	-0.14834893
137	0x3e057726	0.13033733
138	0xbd7e4d4e	-0.062085442
139	0xbe00be3e	-0.12572572
140	0x3d233efa	0.03985498
141	0x3dc57cba	0.0964293
142	0x3ce184a4	0.027529068
143	0x3e1b2aba	0.15153018
144	0x3dd6aeaa	0.10482533
145	0xbdf1f2cc	-0.11813888
146	0x3c8476da	0.016169954
147	0x3df526b8	0.11970276
148	0x3d838ca3	0.06423309
149	0x3d961e33	0.07329979
150	0x3dc42b18	0.09578532
151	0x3df37d3f	0.11889123
152	0xbcf16deb	-0.029471358
153	0x3cc72f96	0.024314683
154	0x3e08850c	0.13332003
155	0x3b2b9cf3	0.0026186078
156	0x3d8f89bd	0.07008693
157	0xbcc10a83	-0.023564583
158	0x3d28a7a5	0.041175503
159	0x3de46ee4	0.11153963
160	0x3e739701	0.23788072
161	0x3e62a313	0.2213252
162	0x3e4b1e66	0.19835815
163	0x3e6690db	0.22516195
164	0x3e2400cb	0.16015927
165	0x3d76f47f	0.060291763
166	0x3e6508b3	0.223666
167	0x3d608448	0.054813653
168	0xbdf35b20	-0.11882615
169	0xbea2092e	-0.3164763
170	0xbcd4b09d	-0.025963122
171	0x3d711583	0.058858406
172	0x3d3e4988	0.046456844
173	0xbef724e7	-0.48270342
174	0xbf159070	-0.5842352
175	0x3e30a50f	0.17250465
176	0x3dce170b	0.10062989
177	0x3ca5a7b6	0.020221572
178	0x3e06737c	0.13129991
179	0x3e136c6b	0.14396827
180	0x3dc098bf	0.09404134
181	0xbb1fbc8b	-0.0024373855
182	0x3e928ad6	0.28621548
183	0xbd31db20	-0.043421865
184	0xbdd66142	-0.10467769
185	0xbe494d7b	-0.19658463
186	0x3e2ce21e	0.16883132
187	0xbd870ee0	-0.06594634
188	0x3d163496	0.036671244
189	0xbe9add0a	-0.30246764
190	0xbe9789c0	-0.29597282
191	0x3e1f4543	0.15553765
192	0xbe2d3bc8	-0.16917336
193	0xbd18fc49	-0.037349973
194	0xbe451125	-0.19244821
195	0xbcc27bbe	-0.023740645
196	0xbe1d46b1	-0.15358998
197	0x3c95308e	0.01821163
198	0xbe03e845	-0.12881573
199	0xbc3dea7a	-0.011591548
200	0xbe06af9b	-0.13152926
201	0x3db922fc	0.09039876
202	0xbd50aea2	-0.050947793
203	0xbe6f94dc	-0.23396629
204	0xbe1d94a6	-0.15388736
205	0x3e37b7a9	0.17941155
206	0x3d4e813e	0.050416224
207	0xbea0a8b5	-0.31378713
208	0x3e0774d1	0.13228156
209	0x3e2a4263	0.16626887
210	0x3e9c674f	0.30547568
211	0x3d9dea7f	0.07710742
212	0x3e4fdb36	0.20298466
213	0x3de0c290	0.1097461
214	0x3e1258f1	0.14291741
215	0x3e937ad0	0.28804636
216	0xbdbdb08c	-0.09262189
217	0xbec98ee7	-0.39366838
218	0xbda5a1a4	-0.08087471
219	0x3e93129c	0.28725135
220	0x3dbe690f	0.09297382
221	0xbef55199	-0.47913817
222	0xbec667a8	-0.38750958
223	0x3dff266d	0.12458501
224	0x3d8d34ff	0.06894874
225	0xbd8019a0	-0.062548876
226	0xbd988a20	-0.0744822
227	0x3e1b3db5	0.15160258
228	0x3d18ec2c	0.037334606
229	0x3d43bf27	0.04778972
230	0x3e08c6e5	0.13357122
231	0x3ddf4ae2	0.10902955
232	0xbbab8c48	-0.0052352287
233	0x3d7eb0cf	0.062180337
234	0x3d7dd302	0.06196881
235	0xbc8c6f2f	-0.01714286
236	0xbd3db527	-0.04631534
237	0x3d99c6b7	0.07508605
238	0x3d585452	0.05281479
239	0x3db4ac68	0.088219464
240	0xbee884bc	-0.45413768
241	0xbdfb743f	-0.122780316
242	0xbde1e716	-0.11030404
243	0x3da5837d	0.0808172
244	0xbeaf4e97	-0.34239647
245	0xbe1058f0	-0.14096427
246	0xbcf5d8ad	-0.030010546
247	0xbd73f834	-0.059562877
248	0xbdf8b10d	-0.12143145
249	0xbd94d814	-0.07267776
250	0xbd6bf4ba	-0.057606436
251	0xbe04b595	-0.12959893
252	0xbe563c3c	-0.20921415
253	0xbd76a139	-0.060212348
254	0xbdc1b263	-0.09457853
255	0xbd13d586	-0.036092304

bias f4 [120]
0	0xbd8aba15	-0.067737736
1	0x3dc0615c	0.0939357
2	0x3d307f44	0.04309012
3	0xbcdef322	-0.027215544
4	0xbce0b4f2	-0.027430031
5	0x3cd3c547	0.025850905
6	0x3c0a29c6	0.008432811
7	0x3c39475f	0.01130852
8	0xbd4316da	-0.047629215
9	0x3c4e4892	0.012590544
10	0xba3d81d4	-0.0007229124
11	0x3ca427a7	0.020038439
12	0xbc80e9e8	-0.015736535
13	0x3d0fe197	0.03512725
14	0xbd3a00f9	-0.045411084
15	0xbd09c538	-0.033635348
16	0x3a1fe1c9	0.0006099013
17	0x3d8cfab6	0.06883757
18	0x3d0000d7	0.0312508
19	0x3c987a13	0.018612897
20	0xbccc793d	-0.024960155
21	0x3cbc14f5	0.022959212
22	0xbdcca2c7	-0.09991985
23	0xbcffdbc5	-0.031232724
24	0x3da296c4	0.079389125
25	0xbd3cc004	-0.046081558
26	0xbcfa53f4	-0.03055761
27	0xbc7a8e0e	-0.015292658
28	0xbb4ec2ff	-0.0031549332
29	0x3a9f959a	0.0012175322
30	0x3da3c7f1	0.0799712
31	0x3ca71108	0.020393863
32	0x3ccaa8eb	0.02473875
33	0x3acac7fb	0.0015470976
34	0xbc4b352c	-0.012402814
35	0xbd6c4eb9	-0.057692263
36	0x3d40b54f	0.04704791
37	0x3b83fc79	0.0040279
38	0x3d18bbab	0.03728835
39	0x3cde54ef	0.027140109
40	0x3d441b0b	0.047877353
41	0x3cccbc60	0.024992168
42	0x3d356a30	0.04429072
43	0x3aa01d4a	0.001221576
44	0x3bd1c775	0.006401951
45	0xbd64b10d	-0.05583291
46	0xbcf12607	-0.029437078
47	0xbd3090f9	-0.043107007
48	0xbd0a1697	-0.03371295
49	0xbd1cfd92	-0.03832776
50	0x3cf41937	0.02979718
51	0x3cad55cb	0.021159073
52	0xbc7db7c4	-0.015485708
53	0x3ceff91c	0.02929359
54	0xbd2b5044	-0.041824594
55	0x3d3fa7a4	0.046790734
56	0xbdccc8ac	-0.099992126
57	0x3cd48e93	0.025946891
58	0xbd73c1ac	-0.05951087
59	0x3db84e5d	0.089993216
60	0x3d02f87a	0.031975247
61	0xbd6d4746	-0.0579293
62	0x3db2eb27	0.08736258
63	0xbd02395e	-0.03179299
64	0x3d6979b7	0.057000842
65	0x3dc45667	0.095867924
66	0xbd1f03a6	-0.03882184
67	0xb9c21a02	-0.0003702194
68	0x3c843dc8	0.01614274
69	0x3d6d9f74	0.058013394
70	0x3c9142df	0.017732082
71	0x3cb58b67	0.022161199
72	0xbc8ffcb5	-0.017576555
73	0xbd459615	-0.048238833
74	0xbbab69b1	-0.0052311053
75	0xbc5d7930	-0.013517663
76	0xbd38ac03	-0.04508592
77	0x3bb9d587	0.0056712064
78	0xbd062706	-0.03275206
79	0xbd406992	-0.04697568
80	0xbd0ac0f5	-0.033875424
81	0xbdf2f29d	-0.11862681
82	0xbd22c2fb	-0.03973673
83	0x3d11b651	0.03557426
84	0xbc2afd2d	-0.010436338
85	0x3b00ef61	0.001967393
86	0x3d0b2ec3	0.033980142
87	0xbb17b627	-0.0023149343
88	0x3d87f367	0.06638222
89	0x3d7c3db5	0.061582286
90	0xbd98b9d9	-0.074573226
91	0x3da816df	0.08207487
92	0x3d3f2849	0.04666928
93	0xbcb74256	-0.022370499
94	0x3b725903	0.0036979325
95	0x3d14faf5	0.036372144
96	0x3baaee0a	0.0052163647
97	0xbd6e163b	-0.05812667
98	0xbd414571	-0.047185365
99	0x3bbf7324	0.0058425833
100	0x3ddb5847	0.10710197
101	0xbbf783b0	-0.00755354
102	0xbd7b468b	-0.061346572
103	0x3d2459cc	0.0401247
104	0x3da0ffef	0.078613155
105	0x3b9cd1f8	0.0047857724
106	0x3db6f892	0.0893413
107	0xbd45ee14	-0.048322752
108	0xbd799091	-0.060928885
109	0xbd01122b	-0.031511467
110	0xbd0857a6	-0.033286713
111	0xbdb1ea3e	-0.08687256
112	0x3d4ec4f4	0.050480798
113	0x3c5d4b7b	0.0135067655
114	0xbc23bf0b	-0.009994279
115	0xbd454ec7	-0.04817083
116	0x3d974092	0.07385363
117	0xba56a31a	-0.0008187756
118	0xbceae2e1	-0.028672637
119	0xbd6931ba	-0.05693219

weight f4 [84, 120]
0	0xbde2916e	-0.11062895
1	0x3e818217	0.25294563
2	0x3cf56f18	0.0299602
3	0x3f0654c2	0.5247308
4	0xbe55846f	-0.208513
5	0x3eb50c90	0.35361147
6	0x3c410b73	0.011782515
7	0xbe49c306	-0.19703302
8	0x3d05cae9	0.032664213
9	0x3df8cd33	0.12148514
10	0x3a3c7432	0.00071889453
11	0xbdc89d8b	-0.09795674
12	0x3e760448	0.2402507
13	0x3e3e0858	0.1855787
14	0xbe86e95d	-0.26349917
15	0xbe96846c	-0.29397905
16	0x3d72f669	0.059317026
17	0x3e90dd31	0.28293756
18	0x3e000ad1	0.12504126
19	0x3ed4f914	0.41596282
20	0x3e9f5c11	0.3112493
21	0x3e75e721	0.2401395
22	0xbec15f2b	-0.3776792
23	0x3e4f8acd	0.20267792
24	0x3e30a567	0.17250596
25	0x3e260d38	0.1621598
26	0x3d085cfc	0.0332918
27	0xbdca8b16	-0.0988981
28	0x3e01ee3f	0.1268854
29	0x3d3a95e8	0.045553118
30	0x3e24fc3c	0.16111845
31	0x3dfb16a7	0.1226018
32	0xbdb678a1	-0.08909727
33	0x3e1c55f9	0.15267171
34	0x3e6fe0eb	0.23425643
35	0xbb0db8b9	-0.0021624996
36	0x3e5613a5	0.20905931
37	0xbe18ebdd	-0.14933725
38	0x3dd8e95b	0.10591384
39	0xbe08c39c	-0.13355869
40	0xbe2aa698	-0.16665113
41	0x3e022aba	0.12711611
42	0x3f00411d	0.50099355
43	0x3e82614d	0.2546486
44	0xbe272ed5	-0.16326459
45	0x3e7b4f7e	0.24542043
46	0x3d5b7c0e	0.053585105
47	0xbd8f5db5	-0.07000295
48	0xbe1e60dd	-0.15466638
49	0x3e296c5f	0.16545247
50	0x3db845ef	0.08997714
51	0x3d8a3184	0.067477256
52	0xbda4cb73	-0.08046617
53	0x3e83587f	0.25653455
54	0x3da1d82b	0.07902559
55	0x3e5302ed	0.20606585
56	0x3c84b71c	0.016200595
57	0x3d6cec50	0.057842553
58	0x3e05a92e	0.13052818
59	0x3eade0cc	0.3396057
60	0x3e2a8b73	0.16654758
61	0x3e2af156	0.16693625
62	0x3e7b6f1e	0.24554107
63	0xbe3390a3	-0.17535643
64	0x3e13b9fe	0.14426419
65	0xbdfa58fd	-0.122240044
66	0x3e6d4aa6	0.23173007
67	0x3e2c93d5	0.16853268
68	0x3d9af6be	0.075665936
69	0xbde3760f	-0.11106502
70	0x3dbac872	0.09120263
71	0x3e8fe384	0.28103268
72	0x3d9be498	0.0761196
73	0xbe3655c2	-0.17806152
74	0xbddd49c2	-0.10805084
75	0x3d02e7a3	0.031959187
76	0x3e32c93d	0.17459579
77	0x3e8544f9	0.26029184
78	0x3e75c85c	0.24002212
79	0x3e214f22	0.15752843
80	0xbec61b4b	-0.38692698
81	0x3da2ff06	0.07958798
82	0xbe4d9016	-0.20074496
83	0xbe08bb1c	-0.13352627
84	0x3e3846c4	0.17995745
85	0x3f0a5e2a	0.5404993
86	0x3d8ffd4d	0.07030735
87	0x3ea70dca	0.32627708
88	0xbe9b0641	-0.3027821
89	0xbde6671d	-0.11250136
90	0xbe8a65e7	-0.2703087
91	0x3e659669	0.22420658
92	0xbe8772c6	-0.26454753
93	0x3d93dde3	0.07220056
94	0xbe82b070	-0.25525236
95	0xbe472330	-0.19447017
96	0xbe42b34b	-0.19013707
97	0xbeb14116	-0.3461997
98	0x3d1ea030	0.038726985
99	0xbcbb46b4	-0.022860862
100	0x3f003248	0.50076723
101	0xbf03b03f	-0.51440805
102	0x3e9994ff	0.29996487
103	0xbe2a3884	-0.16623122
104	0x3dcbd6c6	0.09953074
105	0xbd177dc1	-0.036985163
106	0xbdb38da2	-0.08767249
107	0xbdb150c0	-0.0865798
108	0xbe6e6a86	-0.23282823
109	0x3ce89d73	0.02839539
110	0x3eaeecfc	0.3416518
111	0x3c62cfdf	0.013843506
112	0xbdffbcc5	-0.12487177
113	0x3e78aa28	0.2428366
114	0xbdede7a3	-0.11616447
115	0x3d3d0db0	0.04615563
116	0x3dbfdca4	0.09368256
117	0xbe200582	-0.15627101
118	0x3d1193c6	0.03554132
119	0xbe8257c2	-0.2545758
120	0x3e675990	0.22592759
121	0xbe087ce7	-0.13328896
122	0x3e88e48a	0.2673686
123	0xbd33e553	-0.043919872
124	0x3e0ec75b	0.13943236
125	0xbe247900	-0.16061783
126	0x3e063139	0.13104714
127	0x3e341451	0.17585875
128	0x3e347ece	0.17626497
129	0xbb789371	-0.0037929679
130	0x3eaca491	0.33719304
131	0x3e8368d3	0.25665912
132	0xbd333179	-0.043748353
133	0x3c0ed147	0.008716888
134	0x3e5d2879	0.2159747
135	0x3d7c04ed	0.061528135
136	0xbd2f1fa2	-0.042754777
137	0xbe73de52	-0.23815277
138	0xbe5f81f7	-0.21826921
139	0x3e41ebdc	0.1893763
140	0xbca974ad	-0.020685518
141	0x3e717ace	0.23582003
142	0x3dbabb34	0.091177374
143	0xbe3bc2fa	-0.18336096
144	0xbe3a63f2	-0.18202189
145	0x3e4d1560	0.20027685
146	0xbdc405be	-0.09571408
147	0x3e4d8a83	0.2007237
148	0xbf1437e9	-0.5789781
149	0x3e13abdf	0.14421032
150	0xbe28abd9	-0.16471805
151	0x3e0e6f2a	0.13909593
152	0xbdb8c8c3	-0.09022667
153	0xbd197386	-0.037463687
154	0x3e47b64b	0.19503133
155	0x3dee43f5	0.116340555
156	0x3dbad570	0.09122741
157	0x3e598526	0.21242198
158	0xbe396d71	-0.18108155
159	0x3dad9d7b	0.08477303
160	0xbd73a3af	-0.059482273
161	0xbcc78168	-0.024353698
162	0xbeeea412	-0.4660955
163	0xbe1dc6bf	-0.15407847
164	0x3e8a5f93	0.27026042
165	0xbe63355c	-0.22188324
166	0xbe665f3a	-0.22497264
167	0x3ec7384e	0.38910145
168	0x3e24b523	0.16084723
169	0x3e0fde9c	0.14049762
170	0x3db37e91	0.08764375
171	0x3dd36c31	0.1032337
172	0x3e9939aa	0.29926807
173	0xbe802a88	-0.2503245
174	0xbe65d3e8	-0.22444117
175	0x3d979f70	0.07403457
176	0x3d2c675d	0.042090762
177	0xbe1ce213	-0.15320615
178	0xbe459435	-0.19294818
179	0xbee1af2d	-0.4407896
180	0x3e20287e	0.15640447
181	0x3e20fd10	0.15721536
182	0xbeb61fe5	-0.3557121
183	0x3ebb65a5	0.36600986
184	0xbe9a6ef1	-0.30162767
185	0xbe9d3584	-0.30704892
186	0x3d0e3d44	0.034726396
187	0x3df1655b	0.1178691
188	0x3e2bb1e5	0.1676708
189	0x3e27fc24	0.16404778
190	0x3ea7d230	0.32777548
191	0xbe20f898	-0.15719831
192	0x3d98f384	0.07468322
193	0x3df73cd7	0.12072151
194	0xbe12aa82	-0.14322856
195	0xbe33791d	-0.1752667
196	0xbf004273	-0.50101393
197	0x3d820d00	0.06350136
198	0xbe8bcb99	-0.2730377
199	0x3e2ef986	0.17087373
200	0xbea1b176	-0.31580704
201	0x3e1dbd56	0.15404257
202	0x3dcbbee7	0.09948521
203	0x3f0bd75d	0.54625493
204	0xbe649c4c	-0.22325248
205	0xbe21edcf	-0.15813373
206	0x3e875157	0.26429245
207	0xbc2e8fd2	-0.010654407
208	0xbdf5c3bd	-0.12000225
209	0x3cde9ae4	0.027173467
210	0x3ea26bd3	0.31722888
211	0xbf0de634	-0.5542939
212	0x3efcc05e	0.49365515
213	0x3e9348f9	0.2876661
214	0xbe2d86f6	-0.16946015
215	0x3ba366b2	0.0049866075
216	0x3c4a5974	0.012350429
217	0x3dc4cfae	0.09609924
218	0x3b7484c8	0.003731059
219	0x3f03e8e9	0.5152727
220	0xbe83011e	-0.2558679
221	0xbdadf727	-0.08494406
222	0x3c8515f6	0.016245823
223	0x3f041914	0.51600766
224	0xbf05027b	-0.5195691
225	0x3ea0cfda	0.31408578
226	0x3ef4b1a4	0.4779178
227	0x3e9323c7	0.28738233
228	0x3ea193a0	0.3155794
229	0x3d89abf1	0.06722248
230	0xbefd2bc0	-0.4944744
231	0x3e063a6c	0.13108224
232	0x3e506779	0.20351972
233	0xbd8f1635	-0.069866575
234	0x3f0e0e04	0.55490136
235	0xbd8b99b2	-0.068164244
236	0x3e5082cc	0.20362395
237	0xbd829fa6	-0.06378107
238	0x3ef31ea4	0.47484314
239	0x3da916a7	0.08256274
240	0xbecbeeb3	-0.3983055
241	0x3e58d51b	0.21175043
242	0x3cb53a52	0.022122536
243	0x3d846684	0.06464866
244	0xbe8423cb	-0.25808558
245	0xbe4bf030	-0.19915843
246	0x3dafeba5	0.085898675
247	0x3e326d77	0.1742457
248	0x3ec1b3b7	0.37832424
249	0x3e87672f	0.2644591
250	0x3f0b02aa	0.5430094
251	0x3ef448fe	0.4771194
252	0x3e07c42f	0.13258432
253	0xbe0253c8	-0.12727273
254	0xbeb249c6	-0.3482191
255	0xbea5158a	-0.32242996

bias f4 [84]
0	0xbcadd6be	-0.021220561
1	0x3d8cd200	0.06875992
2	0xbe0be619	-0.13661994
3	0xbd557fa2	-0.052123673
4	0x3c96e934	0.018421747
5	0x3d732bd5	0.059367973
6	0x3cf392c7	0.029733075
7	0xbd810803	-0.06300356
8	0x3e0a9449	0.13533129
9	0x3cc4b53e	0.024012204
10	0xbd1d94cc	-0.038471982
11	0x3cd103de	0.02551454
12	0xbcaf9a2e	-0.021435823
13	0x3d971952	0.07377876
14	0x3dfeeee9	0.12447912
15	0x3c97cc49	0.018530028
16	0x3d2a4545	0.041569967
17	0xbdc2e274	-0.09515849
18	0x3e19a810	0.15005517
19	0xbda327ee	-0.079666
20	0x3df2a885	0.11848549
21	0x3d36a0a9	0.04458681
22	0xbe1e8d4b	-0.15483586
23	0xbd3dcc62	-0.046337493
24	0xbd8df5e0	-0.069316626
25	0x3de79438	0.11307567
26	0x3de8b764	0.11363104
27	0xbdb84197	-0.08996885
28	0xbdea99f1	-0.11455143
29	0x3d4a7656	0.04942926
30	0x3e166e5c	0.14690536
31	0xbd0ace0c	-0.033887908
32	0x3ca1a3ee	0.019731488
33	0x3e0009d6	0.12503752
34	0x3d55e5d0	0.05222112
35	0x3ddbb94f	0.10728704
36	0xbdb754ba	-0.08951707
37	0xbcf40e7c	-0.029792063
38	0x3d5e4521	0.054265145
39	0x3d2b92ad	0.041887928
40	0x3c915cd4	0.01774446
41	0xbdbbb8de	-0.0916612
42	0x3d9fab64	0.07796362
43	0x3d6f8725	0.058478493
44	0x3c03cd6e	0.008044584
45	0x3dada2d7	0.08478325
46	0xbd6eddef	-0.05831712
47	0x3dca65ba	0.09882684
48	0x3d04d284	0.032427326
49	0xbde80dc2	-0.11330749
50	0xbd6274a4	-0.05528702
51	0xbd960345	-0.07324842
52	0x3d0e53bd	0.034747828
53	0xbd2fbb65	-0.042903323
54	0x3ddb89cc	0.10719642
55	0xbd323344	-0.043505922
56	0xbcca5eef	-0.024703471
57	0x3d1a8c55	0.037731487
58	0x3d50ec7f	0.05100679
59	0xbd63f6f0	-0.05565542
60	0x3d5bb466	0.05363884
61	0xbde23db0	-0.11046922
62	0xbdafe4d1	-0.08588565
63	0x3e06f0ba	0.13177767
64	0xbe1ec2ad	-0.1550395
65	0xbd46d5f9	-0.048543904
66	0x3cb3b581	0.021937134
67	0x3ced3e4d	0.028960371
68	0xbc5e6025	-0.013572727
69	0x3de7c079	0.11316008
70	0x3d6ef49e	0.058338754
71	0xbc13b1aa	-0.009014526
72	0x3cd97a0c	0.026547454
73	0x3dc1202f	0.09429967
74	0xbcaffc29	-0.021482544
75	0x3d250912	0.040291853
76	0xbe001baa	-0.12510553
77	0xbdcfdc1c	-0.101494044
78	0xbc09f440	-0.00842005
79	0xbd743987	-0.059625175
80	0xbcff6709	-0.03117706
81	0x3e06eac8	0.131755
82	0x3d87950d	0.06620226
83	0x3dad0fc1	0.084502704

weight f4 [10, 84]
0	0x3d64f328	0.055895954
1	0xbec297bf	-0.38006398
2	0xbdcd8645	-0.100353755
3	0x3e90d01f	0.28283784
4	0x3ea92cdd	0.3304204
5	0xbdfbdc75	-0.12297908
6	0xbd3584de	-0.044316165
7	0xbf0be3d4	-0.54644513
8	0xbb8f890a	-0.00438035
9	0x3eafc6aa	0.34331256
10	0x3e3a186d	0.1817338
11	0xbdbd5454	-0.092446
12	0xbe1d5124	-0.15362984
13	0xbe6dce97	-0.23223339
14	0x3e11f44e	0.14253351
15	0xbeaaf866	-0.33392638
16	0xbdba5ff3	-0.09100332
17	0x3df3a979	0.11897559
18	0xbda26854	-0.07930055
19	0xbeb4137a	-0.3517111
20	0x3e38669c	0.18007892
21	0xbead7ab8	-0.3388269
22	0x3e9c1e84	0.30492032
23	0x3cbb6fb5	0.022880415
24	0x3eadc51d	0.33939448
25	0x3da1fd14	0.07909599
26	0xbeb817d9	-0.35955694
27	0xbece84c4	-0.40335667
28	0x3e93d955	0.2887675
29	0xbe409180	-0.18805504
30	0x3edffb4a	0.43746406
31	0x3eb6f5a6	0.3573429
32	0xbf05cfa0	-0.52269936
33	0x3e8d1a1f	0.2755899
34	0xbf07152b	-0.52766675
35	0xbd524e22	-0.051344045
36	0xbcbbe5be	-0.022936698
37	0xbb4cc25b	-0.0031243775
38	0x3e91459d	0.28373423
39	0xbe53177a	-0.20614424
40	0xbe502182	-0.20325282
41	0x3eda2682	0.42607504
42	0xbe49ed46	-0.19719419
43	0xbe041d7f	-0.12901877
44	0xbef34cd5	-0.47519556
45	0x3ca771c4	0.02043999
46	0x3e918c09	0.2842715
47	0x3e77162f	0.24129556
48	0x3e96f286	0.29481906
49	0x3da13625	0.078716554
50	0x3eb05062	0.34436327
51	0x3c259bcf	0.010107948
52	0x3e31356e	0.17305538
53	0x3d19c237	0.037538733
54	0xbcd4c094	-0.025970735
55	0xbeb1ce90	-0.34727907
56	0xbe831797	-0.25603935
57	0x3e618970	0.22025084
58	0xbda17203	-0.07883074
59	0x3d0d6f41	0.034529928
60	0x3dac4e56	0.08413379
61	0x3e21b5ff	0.15792082
62	0x3e1d4958	0.1536001
63	0x3da86747	0.082228236
64	0xbdc60a9f	-0.096699946
65	0x3e4d2a4d	0.20035668
66	0xbe6254c3	-0.22102647
67	0xbe1aad53	-0.1510518
68	0xbec5297b	-0.3850821
69	0x3e75a4a5	0.23988588
70	0xbebde58e	-0.370892
71	0xbf08402c	-0.5322292
72	0x3ec428ba	0.38312322
73	0xb98fc5a1	-0.0002742233
74	0x3da73095	0.08163563
75	0xbf006506	-0.5015415
76	0xbe636910	-0.22208047
77	0x3e60cc3e	0.21952912
78	0xbd90627d	-0.07050035
79	0x3e14806c	0.14502114
80	0xbd144282	-0.03619624
81	0x3e937a3b	0.28804192
82	0x3e94cab3	0.29060897
83	0xbdeb4cd3	-0.114892624
84	0x3d48eb31	0.04905242
85	0x3f16327b	0.5867078
86	0x3e942ed4	0.28941977
87	0xbe897669	-0.26848152
88	0xbecab2f2	-0.3958965
89	0xbe32e133	-0.17468719
90	0x3e981690	0.29704714
91	0xbec00480	-0.37503433
92	0xbed52331	-0.4162841
93	0x3e0f30ef	0.1398351
94	0xbee9b7f1	-0.4564815
95	0xbd4752ae	-0.048662834
96	0xbe979a0f	-0.29609725
97	0xbd8a13a7	-0.0674203
98	0xbeadc52b	-0.3393949
99	0xbe642081	-0.22278024
100	0xbea8cdb9	-0.32969454
101	0x3e8f644e	0.28006214
102	0xbe3184bc	-0.1733579
103	0x3eeb2178	0.45923972
104	0xbf254339	-0.645557
105	0x3f05f41e	0.5232562
106	0xbe52b8ac	-0.20578259
107	0xbe303059	-0.17205943
108	0x3e793c16	0.24339327
109	0x3e60b884	0.21945387
110	0xbe3d8f35	-0.1851166
111	0xbd71564a	-0.058920182
112	0xbe88dd97	-0.2673156
113	0xbeb37245	-0.35048118
114	0xbf16208e	-0.58643425
115	0x3db13472	0.08652581
116	0xbe0d760c	-0.13814563
117	0xbf136f01	-0.57591254
118	0xbe18005f	-0.14843892
119	0xbe111f29	-0.14172043
120	0x3e87da6e	0.26533836
121	0x3e4a412d	0.19751425
122	0x3e8e365e	0.27775854
123	0xbe9a0b05	-0.30086532
124	0x3f15cebc	0.58518577
125	0x3eb8497a	0.35993558
126	0xbe5b6244	-0.21424204
127	0xbe715dce	-0.2357094
128	0xbce40716	-0.02783541
129	0x3e43566a	0.19075933
130	0x3e7558a7	0.239596
131	0xbe07150c	-0.13191622
132	0x3f04fe45	0.51950485
133	0x3e1b276a	0.15151754
134	0x3e2485b0	0.16066623
135	0x3e1cb524	0.15303475
136	0xbefc5396	-0.4928252
137	0x3dd022d7	0.10162895
138	0xbd3f3949	-0.04668549
139	0x3f1c20e3	0.6098768
140	0xbecbbb17	-0.39791176
141	0xbe4195dc	-0.18904823
142	0xbe666c5c	-0.22502273
143	0x3c9e58f7	0.019329531
144	0x3e6a40e6	0.2287632
145	0xbdfe0e57	-0.12405079
146	0xbec9271b	-0.39287648
147	0xbdea3026	-0.11434965
148	0x3e6f3370	0.23359466
149	0x3e47f8f2	0.19528559
150	0xbe6703fd	-0.22560115
151	0xbce49d1f	-0.027906952
152	0x3ec3ee10	0.38267565
153	0xbf2eb4f6	-0.68244874
154	0xbf14c72b	-0.58116406
155	0x3e94e846	0.2908346
156	0x3eb2182f	0.34784076
157	0xbe268c4d	-0.16264458
158	0x3e6934b1	0.22774006
159	0xbe6c5921	-0.23080875
160	0xbe5f98c6	-0.21835622
161	0xbeecf3bb	-0.46279702
162	0xbe53dcea	-0.20689741
163	0x3db3fd17	0.087885074
164	0x3e0e459e	0.13893744
165	0x3e37a34c	0.17933387
166	0x3e73640b	0.23768632
167	0x3e052f00	0.1300621
168	0x3d968a6c	0.073506206
169	0x3e09e0bf	0.1346464
170	0x3e153032	0.14569166
171	0x3e80e0f8	0.25171638
172	0xbecfba5a	-0.40571862
173	0xbe09e2e5	-0.1346546
174	0x3e607270	0.21918654
175	0x3eac2584	0.33622372
176	0xbf1c0391	-0.6094294
177	0xbec0bc8a	-0.37643844
178	0x3e7bac6d	0.24577494
179	0x3d1b312c	0.03788869
180	0xbe1a7320	-0.15082979
181	0xbd52c0e2	-0.05145348
182	0xbe8aa86b	-0.27081618
183	0x3efbfdb9	0.49217013
184	0xbe80bee8	-0.2514565
185	0x3dcb77fe	0.09934996
186	0xbe943b4e	-0.28951496
187	0xbe39aac4	-0.18131548
188	0x3e64b4be	0.22334573
189	0xbdc7c161	-0.09753681
190	0x3d03a255	0.032137234
191	0xbea95d7b	-0.33079132
192	0xbe9b2bc7	-0.30306837
193	0x3e3ff916	0.18747362
194	0xbf31a86d	-0.6939762
195	0x3edec7f2	0.4351192
196	0x3e3683a1	0.1782365
197	0xbe8c21fa	-0.27369672
198	0x3e626187	0.22107516
199	0xbef32098	-0.47485805
200	0x3eda6a04	0.42659009
201	0x3e1efbe8	0.15525782
202	0xbe127b33	-0.1430481
203	0xbf2370dd	-0.6384409
204	0x3dc05dc7	0.093928866
205	0x3e45840a	0.1928865
206	0xbeef67d4	-0.46758902
207	0xbd788c5a	-0.060680725
208	0xbe453ee5	-0.19262274
209	0xbf010200	-0.50393677
210	0xbe465c8e	-0.19371244
211	0xbda71477	-0.081582
212	0x3ec35c3c	0.38156307
213	0x3c486292	0.012230532
214	0x3d860f41	0.06545878
215	0xbf1e647f	-0.61872095
216	0x3b3b4a54	0.0028578239
217	0x3e1cb67c	0.15303987
218	0xbf02cd7e	-0.51094806
219	0x3e456170	0.1927545
220	0x3e4aea89	0.1981603
221	0x3e1ca619	0.15297736
222	0x3d12d9c4	0.03585221
223	0xbd87ccc9	-0.066308565
224	0xbea6ad8f	-0.3255429
225	0x3e2bcf09	0.16778196
226	0xbeb34a8a	-0.35017806
227	0x3e399a28	0.18125212
228	0x3e5f081d	0.21780439
229	0x3e83fb8c	0.25777853
230	0x3e436e07	0.19084941
231	0xbeeb3edb	-0.45946392
232	0xbed20f6d	-0.41027394
233	0xbee7ba34	-0.4525925
234	0xbd49935d	-0.049212802
235	0xbd7cff9e	-0.061767213
236	0xbe90093b	-0.28132042
237	0x3e19e6fb	0.15029518
238	0xbeff9052	-0.49914795
239	0xbf1ea729	-0.61973816
240	0xbefa80e7	-0.4892647
241	0xbe8da6e1	-0.2766638
242	0x3d01606c	0.031586096
243	0x3e986142	0.29761702
244	0x3ead6b1a	0.33870775
245	0x3e74614d	0.23865242
246	0xbbf50cf5	-0.0074783512
247	0x3e0b91c5	0.13629825
248	0xbe2c09fb	-0.16800682
249	0x3e2bf3c2	0.16792205
250	0xbe3c3ac6	-0.18381795
251	0x3d19dceb	0.0375642
252	0x3e105dc6	0.14098272
253	0xbe33039b	-0.17481844
254	0xbdadb07b	-0.084809266
255	0xbee07150	-0.4383645

bias f4 [10]
0	0xbc80783f	-0.015682338
1	0x3d803739	0.06260533
2	0x3d2e2a72	0.042520948
3	0x3db593f3	0.0886611
4	0x3d35b1bd	0.044358958
5	0xbdd747e2	-0.105117574
6	0x3df1664d	0.117870905
7	0x3d1e3059	0.038620327
8	0xbe38002d	-0.17968817
9	0x3bbea132	0.005817556
